#loc0 = loc(unknown)
#loc13 = loc(fused["ScatterNd:", "ScatterNd@__inference___call___185"])
module  {
  util.global private @__iree_flow___sm_node4 = dense<0.000000e+00> : tensor<215000xf64> loc(#loc0)
  util.global private @__iree_flow___sm_node5 = dense<0.000000e+00> : tensor<215000xf64> loc(#loc0)
  func @__call__(%arg0: !hal.buffer_view loc(unknown), %arg1: !hal.buffer_view loc(unknown), %arg2: !hal.buffer_view loc(unknown)) -> !hal.buffer_view attributes {iree.abi = "{\22a\22:[[\22ndarray\22,\22i64\22,1,5000],[\22ndarray\22,\22i64\22,2,5000,1],[\22ndarray\22,\22f32\22,2,5000,1]],\22r\22:[[\22ndarray\22,\22f32\22,2,5000,1]],\22v\22:1}"} {
    %0 = hal.tensor.import %arg0 : !hal.buffer_view -> tensor<5000xi64> loc(#loc0)
    %1 = hal.tensor.import %arg1 : !hal.buffer_view -> tensor<5000x1xi64> loc(#loc0)
    %2 = hal.tensor.import %arg2 : !hal.buffer_view -> tensor<5000x1xf32> loc(#loc0)
    %3 = call @__inference___call___1850(%0, %1, %2) : (tensor<5000xi64>, tensor<5000x1xi64>, tensor<5000x1xf32>) -> tensor<5000x1xf32> loc(#loc0)
    %4 = hal.tensor.export %3 : tensor<5000x1xf32> -> !hal.buffer_view loc(#loc0)
    return %4 : !hal.buffer_view loc(#loc0)
  } loc(#loc0)
  func private @__inference___call___1850(%arg0: tensor<5000xi64> {tf._user_specified_name = "segment_value"} loc(unknown), %arg1: tensor<5000x1xi64> {tf._user_specified_name = "segment_lengths"} loc(unknown), %arg2: tensor<5000x1xf32> {tf._user_specified_name = "logit"} loc(unknown)) -> tensor<5000x1xf32> attributes {tf._construction_context = "kEagerRuntime", tf._input_shapes = [#tf_type.shape<5000>, #tf_type.shape<5000x1>, #tf_type.shape<5000x1>, #tf_type.shape<215000>, #tf_type.shape<215000>]} {
    %0 = mhlo.constant dense<5.000000e-01> : tensor<5000x1xf32> loc(#loc1)
    %1 = mhlo.constant dense<42> : tensor<i64> loc(#loc2)
    %2 = mhlo.constant dense<1.000000e+04> : tensor<f64> loc(#loc3)
    %3 = mhlo.constant dense<5000> : tensor<i64> loc(#loc4)
    %4 = mhlo.constant dense<0.999499976> : tensor<f32> loc(#loc5)
    %5 = mhlo.constant dense<5.000000e-04> : tensor<f32> loc(#loc6)
    %6 = mhlo.constant dense<1> : tensor<5000xi64> loc(#loc7)
    %7 = mhlo.constant dense<1> : tensor<i64> loc(#loc8)
    %8 = mhlo.constant dense<"…"> : tensor<5000x1xi64> loc(#loc9)
    %9 = mhlo.constant dense<0.91629076> : tensor<f32> loc(#loc10)
    %10 = mhlo.constant dense<1.000000e+00> : tensor<f32> loc(#loc11)
    %11 = mhlo.constant dense<5.000000e+03> : tensor<f32> loc(#loc12)
    %12 = mhlo.constant dense<0> : tensor<5000xi64> loc(#loc13)
    %__iree_flow___sm_node4 = util.global.load @__iree_flow___sm_node4 : tensor<215000xf64> loc(#loc0)
    %__iree_flow___sm_node5 = util.global.load @__iree_flow___sm_node5 : tensor<215000xf64> loc(#loc0)
    %13 = "mhlo.reshape"(%arg1) : (tensor<5000x1xi64>) -> tensor<5000xi64> loc(#loc14)
    %14 = chlo.broadcast_compare %13, %6 {comparison_direction = "EQ"} : (tensor<5000xi64>, tensor<5000xi64>) -> tensor<5000xi1> loc(#loc15)
    %15 = "mhlo.gather"(%arg0, %8) {dimension_numbers = #mhlo.gather<collapsed_slice_dims = [0], start_index_map = [0], index_vector_dim = 1>, indices_are_sorted = false, slice_sizes = dense<1> : tensor<1xi64>} : (tensor<5000xi64>, tensor<5000x1xi64>) -> tensor<5000xi64> loc(#loc16)
    %16 = chlo.broadcast_add %15, %7 {broadcast_dimensions = dense<> : tensor<0xi64>} : (tensor<5000xi64>, tensor<i64>) -> tensor<5000xi64> loc(#loc17)
    %17 = "mhlo.scatter"(%12, %8, %16) ( {
    ^bb0(%arg3: tensor<i64> loc(fused["ScatterNd:", "ScatterNd@__inference___call___185"]), %arg4: tensor<i64> loc(fused["ScatterNd:", "ScatterNd@__inference___call___185"])):  // no predecessors
      %47 = mhlo.add %arg3, %arg4 : tensor<i64> loc(#loc13)
      "mhlo.return"(%47) : (tensor<i64>) -> () loc(#loc13)
    }) {indices_are_sorted = false, scatter_dimension_numbers = #mhlo.scatter<inserted_window_dims = [0], scatter_dims_to_operand_dims = [0], index_vector_dim = 1>, unique_indices = false} : (tensor<5000xi64>, tensor<5000x1xi64>, tensor<5000xi64>) -> tensor<5000xi64> loc(#loc13)
    %18 = chlo.broadcast_compare %17, %1 {broadcast_dimensions = dense<> : tensor<0xi64>, comparison_direction = "GT"} : (tensor<5000xi64>, tensor<i64>) -> tensor<5000xi1> loc(#loc18)
    %19 = chlo.broadcast_subtract %arg2, %9 {broadcast_dimensions = dense<> : tensor<0xi64>} : (tensor<5000x1xf32>, tensor<f32>) -> tensor<5000x1xf32> loc(#loc19)
    %20 = mhlo.multiply %19, %0 : tensor<5000x1xf32> loc(#loc1)
    %21 = "mhlo.tanh"(%20) : (tensor<5000x1xf32>) -> tensor<5000x1xf32> loc(#loc1)
    %22 = mhlo.multiply %21, %0 : tensor<5000x1xf32> loc(#loc1)
    %23 = mhlo.add %22, %0 : tensor<5000x1xf32> loc(#loc1)
    %24 = "mhlo.reshape"(%23) : (tensor<5000x1xf32>) -> tensor<5000xf32> loc(#loc20)
    %25 = chlo.broadcast_multiply %24, %5 {broadcast_dimensions = dense<> : tensor<0xi64>} : (tensor<5000xf32>, tensor<f32>) -> tensor<5000xf32> loc(#loc21)
    %26 = chlo.broadcast_multiply %24, %11 {broadcast_dimensions = dense<> : tensor<0xi64>} : (tensor<5000xf32>, tensor<f32>) -> tensor<5000xf32> loc(#loc12)
    %27 = "mhlo.ceil"(%26) : (tensor<5000xf32>) -> tensor<5000xf32> loc(#loc22)
    %28 = chlo.broadcast_subtract %27, %10 {broadcast_dimensions = dense<> : tensor<0xi64>} : (tensor<5000xf32>, tensor<f32>) -> tensor<5000xf32> loc(#loc23)
    %29 = "mhlo.convert"(%28) : (tensor<5000xf32>) -> tensor<5000xi64> loc(#loc24)
    %30 = chlo.broadcast_compare %12, %17 {comparison_direction = "GT"} : (tensor<5000xi64>, tensor<5000xi64>) -> tensor<5000xi1> loc(#loc25)
    %31 = chlo.broadcast_select %18, %12, %17 : (tensor<5000xi1>, tensor<5000xi64>, tensor<5000xi64>) -> tensor<5000xi64> loc(#loc26)
    %32 = chlo.broadcast_select %30, %12, %31 : (tensor<5000xi1>, tensor<5000xi64>, tensor<5000xi64>) -> tensor<5000xi64> loc(#loc27)
    %33 = chlo.broadcast_select %14, %32, %12 : (tensor<5000xi1>, tensor<5000xi64>, tensor<5000xi64>) -> tensor<5000xi64> loc(#loc28)
    %34 = chlo.broadcast_multiply %33, %3 {broadcast_dimensions = dense<> : tensor<0xi64>} : (tensor<5000xi64>, tensor<i64>) -> tensor<5000xi64> loc(#loc29)
    %35 = chlo.broadcast_add %29, %34 : (tensor<5000xi64>, tensor<5000xi64>) -> tensor<5000xi64> loc(#loc30)
    %36 = "mhlo.convert"(%35) : (tensor<5000xi64>) -> tensor<5000xi32> loc(#loc31)
    %37 = "mhlo.convert"(%36) : (tensor<5000xi32>) -> tensor<5000xi64> loc(#loc32)
    %38 = "mhlo.torch_index_select"(%__iree_flow___sm_node4, %37) {batch_dims = 0 : i64, dim = 0 : i64} : (tensor<215000xf64>, tensor<5000xi64>) -> tensor<5000xf64> loc(#loc33)
    %39 = "mhlo.torch_index_select"(%__iree_flow___sm_node5, %37) {batch_dims = 0 : i64, dim = 0 : i64} : (tensor<215000xf64>, tensor<5000xi64>) -> tensor<5000xf64> loc(#loc34)
    %40 = chlo.broadcast_compare %39, %2 {broadcast_dimensions = dense<> : tensor<0xi64>, comparison_direction = "GT"} : (tensor<5000xf64>, tensor<f64>) -> tensor<5000xi1> loc(#loc35)
    %41 = chlo.broadcast_divide %38, %39 : (tensor<5000xf64>, tensor<5000xf64>) -> tensor<5000xf64> loc(#loc36)
    %42 = "mhlo.convert"(%41) : (tensor<5000xf64>) -> tensor<5000xf32> loc(#loc37)
    %43 = chlo.broadcast_multiply %42, %4 {broadcast_dimensions = dense<> : tensor<0xi64>} : (tensor<5000xf32>, tensor<f32>) -> tensor<5000xf32> loc(#loc38)
    %44 = chlo.broadcast_add %43, %25 : (tensor<5000xf32>, tensor<5000xf32>) -> tensor<5000xf32> loc(#loc39)
    %45 = chlo.broadcast_select %40, %44, %24 : (tensor<5000xi1>, tensor<5000xf32>, tensor<5000xf32>) -> tensor<5000xf32> loc(#loc40)
    %46 = "mhlo.reshape"(%45) : (tensor<5000xf32>) -> tensor<5000x1xf32> loc(#loc41)
    return %46 : tensor<5000x1xf32> loc(#loc0)
  } loc(#loc0)
} loc(#loc0)
#loc1 = loc(fused["Sigmoid:", "Sigmoid@__inference___call___185"])
#loc2 = loc(fused["Const:", "Greater/y@__inference___call___185"])
#loc3 = loc(fused["Const:", "Greater_2/y@__inference___call___185"])
#loc4 = loc(fused["Cast:", "range/Cast@__inference___call___185"])
#loc5 = loc(fused["Const:", "mul_1/y@__inference___call___185"])
#loc6 = loc(fused["Const:", "mul_2/y@__inference___call___185"])
#loc7 = loc(fused["Fill:", "ones@__inference___call___185"])
#loc8 = loc(fused["Const:", "add/y@__inference___call___185"])
#loc9 = loc(fused["ExpandDims:", "ExpandDims@__inference___call___185"])
#loc10 = loc(fused["Const:", "sub/y@__inference___call___185"])
#loc11 = loc(fused["Const:", "sub_1/y@__inference___call___185"])
#loc12 = loc(fused["RealDiv:", "truediv@__inference___call___185", "Const:", "truediv/y@__inference___call___185"])
#loc14 = loc(fused["Reshape:", "Reshape_1@__inference___call___185"])
#loc15 = loc(fused["Equal:", "Equal@__inference___call___185"])
#loc16 = loc(fused["GatherNd:", "GatherNd@__inference___call___185"])
#loc17 = loc(fused["AddV2:", "add@__inference___call___185"])
#loc18 = loc(fused["Greater:", "Greater@__inference___call___185"])
#loc19 = loc(fused["Sub:", "sub@__inference___call___185"])
#loc20 = loc(fused["Reshape:", "Reshape@__inference___call___185"])
#loc21 = loc(fused["Mul:", "mul_2@__inference___call___185"])
#loc22 = loc(fused["Ceil:", "Ceil@__inference___call___185"])
#loc23 = loc(fused["Sub:", "sub_1@__inference___call___185"])
#loc24 = loc(fused["Cast:", "Cast@__inference___call___185"])
#loc25 = loc(fused["Greater:", "Greater_1@__inference___call___185"])
#loc26 = loc(fused["SelectV2:", "SelectV2@__inference___call___185"])
#loc27 = loc(fused["SelectV2:", "SelectV2_1@__inference___call___185"])
#loc28 = loc(fused["SelectV2:", "SelectV2_2@__inference___call___185"])
#loc29 = loc(fused["Mul:", "mul@__inference___call___185"])
#loc30 = loc(fused["AddV2:", "add_1@__inference___call___185"])
#loc31 = loc(fused["Cast:", "Cast_1@__inference___call___185"])
#loc32 = loc(fused["Cast:", "Cast_2@__inference___call___185"])
#loc33 = loc(fused["GatherV2:", "GatherV2@__inference___call___185"])
#loc34 = loc(fused["GatherV2:", "GatherV2_1@__inference___call___185"])
#loc35 = loc(fused["Greater:", "Greater_2@__inference___call___185"])
#loc36 = loc(fused["RealDiv:", "truediv_1@__inference___call___185"])
#loc37 = loc(fused["Cast:", "Cast_4@__inference___call___185"])
#loc38 = loc(fused["Mul:", "mul_1@__inference___call___185"])
#loc39 = loc(fused["AddV2:", "add_2@__inference___call___185"])
#loc40 = loc(fused["SelectV2:", "SelectV2_3@__inference___call___185"])
#loc41 = loc(fused["Reshape:", "Reshape_4@__inference___call___185"])

